iris_classification.tflite (tflite, 2020 bytes, 4 tensors)

sequential/dense_1/BiasAdd/ReadVariableOp f4 [3]
0.28284347 0.13478066 -0.20938337
00000000: dcd0 903e f103 0a3e 9868 56be

sequential/dense/BiasAdd/ReadVariableOp f4 [10]
-0.1167008 0.15867878 0.0 -0.20649324 0.0 -0.0353563 -0.018029468 0.0
0.0 -0.15538879
00000000: d400 efbd b17c 223e 0000 0000 f772 53be
00000010: 0000 0000 c5d1 10bd 89b2 93bc 0000 0000
00000020: 0000 0000 3d1e 1fbe

sequential/dense/MatMul f4 [10, 4]
-0.43472418 -0.26831898 0.8009954 0.6435557 -0.16789488 0.5223907 0.31390482 0.584425
-0.53636444 0.39204967 -0.057605803 0.46628034 0.060709435 -0.17348205 0.52854216 0.24493568
-0.555923 -0.09981775 0.39740837 0.26115447 0.2162167 -0.61730266 0.77731776 -0.061696693
0.50190496 0.4179831 -0.093128055 0.15061003 -0.08689159 -0.29325485 0.13709784 -0.59277433
0.2541539 -0.24424148 -0.49736634 -0.63259697 0.06645991 0.16086462 -0.7004467 0.19610725
00000000: 2b94 debe 1b61 89be 090e 4d3f 11c0 243f
00000010: a3ec 2bbe 66bb 053f 22b8 a03e e09c 153f
00000020: 2e4f 09bf bcba c83e 10f4 6bbd 4cbc ee3e
00000030: 75aa 783d 47a5 31be 8a4e 073f 6bd0 7a3e
00000040: f850 0ebf 406d ccbd 1c79 cb3e 0ab6 853e
00000050: e967 5d3e 8c07 1ebf 4cfe 463f acb5 7cbd
00000060: d87c 003f e201 d63e ecb9 bebd 8439 1a3e
00000070: 38f4 b1bd 8025 96be 6063 0c3e 0fc0 17bf
00000080: 7620 823e 701a 7abe cda6 febe e0f1 21bf
00000090: 221c 883d b2b9 243e 7a50 33bf 57d0 483e

sequential/dense_1/MatMul f4 [3, 10]
-0.5992788 -0.15654425 -0.5198902 -0.5274984 -0.52815294 -0.95261407 0.5423236 0.484653
0.67406 0.049889736 -0.51333165 0.7586109 -0.04037416 -0.21084955 -0.16601026 0.09477803
-0.45316795 -0.30908614 -0.51400197 0.27678698 0.9290203 -0.32889655 -0.41828743 0.093541704
0.45322418 -0.07440701 -0.04795984 0.5173727 -0.37736723 0.24845126
00000000: 566a 19bf 234d 20be 8617 05bf 230a 07bf
00000010: 0835 07bf 84de 73bf b8d5 0a3f 7024 f83e
00000020: 328f 2c3f 2e59 4c3d b469 03bf 5334 423f
00000030: 605f 25bd f2e8 57be 98fe 29be fc1a c23d
00000040: a105 e8be 8a40 9ebe a295 03bf 06b7 8d3e
00000050: 46d4 6d3f 2165 a8be c529 d6be cb92 bf3d
00000060: 000d e83e b462 98bd 8a71 44bd 8a72 043f
00000070: 4736 c1be 026a 7e3e
